…
y Chair --train_data_fn Chair.train.npy --val_data_fn Chair.val.npy --loss_weight_trans_l2 1.0 --loss_weight_rot_l2 0.0 --loss_weight_rot_cd 10 --loss_weight_shape_cd 1.0 --device cuda:0 --num_epoch_every_visu 99 --level 3 --overwrite --batch_size 8 --num_workers 8 --num_batch_every_visu 0

Random Seed: 3124256514
Using device: cuda:0

[PartNetPartDataset Chair 4489] data_dir: ../../prepare_data/, data_fn: Chair.train.npy, max_num_part: 20
[PartNetPartDataset Chair 617] data_dir: ../../prepare_data/, data_fn: Chair.val.npy, max_num_part: 20

Network(
  (part_pointnet): PartPointNet(
    (conv1): Conv1d(3, 64, kernel_size=(1,), stride=(1,))
    (conv2): Conv1d(64, 64, kernel_size=(1,), stride=(1,))
    (conv3): Conv1d(64, 64, kernel_size=(1,), stride=(1,))
    (conv4): Conv1d(64, 128, kernel_size=(1,), stride=(1,))
    (bn1): BatchNorm1d(64, eps=1e-05, momentum=0.1, affine=True, track_running_stats=True)
    (bn2): BatchNorm1d(64, eps=1e-05, momentum=0.1, affine=True, track_running_stats=True)
    (bn3): BatchNorm1d(64, eps=1e-05, momentum=0.1, affine=True, track_running_stats=True)
    (bn4): BatchNorm1d(128, eps=1e-05, momentum=0.1, affine=True, track_running_stats=True)
    (mlp1): Linear(in_features=128, out_features=128, bias=True)
    (bn6): BatchNorm1d(128, eps=1e-05, momentum=0.1, affine=True, track_running_stats=True)
  )
  (pose_decoder): PoseDecoder(
    (mlp1): Linear(in_features=292, out_features=512, bias=True)
    (mlp2): Linear(in_features=512, out_features=256, bias=True)
    (trans): Linear(in_features=256, out_features=3, bias=True)
    (quat): Linear(in_features=256, out_features=4, bias=True)
  )
)

training run exp-Chair-model-Chair-
     Time    Epoch     Dataset    Iteration    Progress(%)       LR    TransL2Loss    RotL2Loss   RotCDLoss   TotalLoss
 00:00:03     0/1000    train        0/561         0.0%      1.00E-03    0.42256      0.15211      0.06760     0.11150     1.20677  
